checkpoint/checkpoint.pth.tar (torch_old, 531470 bytes, 25 tensors)

conv1.weight f4 [16, 2, 3, 3]
0.18953718 -0.061546724 0.19157259 -0.17798537 -0.303999 0.07926243 -0.11539501 0.0031212184
0.12733659 0.1334782 -0.13806866 -0.16134518 0.094289094 0.047956947 -0.17756675 0.16171113
0.05980262 -0.0025561906 0.018787626 -0.095024295 -0.28746447 0.13665551 -0.25866717 -0.14381623
-0.069934845 0.058317814 -0.21044293 0.060394242 -0.0068492917 0.03419867 0.02438793 0.09008877
-0.08032944 0.08439407 -0.095519334 -0.27146795 -0.0063709216 0.23988295 0.08073391 0.061577268
0.13253672 -0.014731594 -0.23165525 -0.05906803 0.38035318 0.14029497 0.12039504 0.07549237
-0.11003097 0.026452564 -0.054869425 0.1394103 0.29023418 -0.11705059 -0.047508486 -0.010283574
-0.02349409 -0.04202538 -0.27813673 -0.036330782 -0.05432485 -0.2889078 0.18793026 0.1339995
0.014747213 -0.023787582 -0.033325683 -0.13677564 -0.038019337 0.114517495 -0.015860168 -0.14353389
-0.19720724 0.08758323 -0.09552453 0.085007496 -0.03577721 0.29550147 -0.085790515 0.26954797
-0.14158724 0.16737679 -0.0135512035 -0.042425726 -0.058235783 0.00495397 0.041496806 0.055828348
0.1514469 0.09316237 0.11114117 -0.21309593 -0.00082849216 0.008449412 -0.3153753 0.1134002
-0.1717504 -0.21825069 -0.06606852 0.1461561 0.004327558 0.105750166 0.06231317 0.1270469
-0.25109553 0.19525485 0.106939234 0.036430657 -0.2815055 -0.16043797 0.083863705 0.19808725
0.17044109 0.22282179 -0.0430985 -0.28040951 0.17649141 0.08286684 0.2409772 -0.19581275
0.22290857 -0.06351651 -0.16675748 -0.1919585 0.15342002 0.0626911 0.0007703876 0.3454889
0.042844795 -0.2427206 0.2103382 -0.082457356 -0.22366032 -0.24756193 -0.008770959 -0.023030275
0.15130539 -0.19137292 0.112999424 -0.027180726 0.14078093 0.07959295 -0.13419369 0.12675503
0.11161115 -0.111077644 -0.11377525 0.26495248 -0.17647286 -0.02909111 -0.20162901 -0.17999633
0.24138068 0.118765466 0.17755505 0.07124194 0.10701349 -0.09399902 -0.049700826 0.16408457
0.14889863 -0.22695805 -0.018432818 -0.22565424 0.04094877 -0.28221515 -0.15258719 0.21649112
-0.10666468 0.26104546 0.10380298 0.06857087 0.05529698 0.1492151 -0.013856886 -0.09805218
0.10358626 -0.20832092 -0.027919257 -0.11522782 0.17497191 0.073881514 -0.14586866 0.22430177
-0.32779938 0.18309264 -0.010979442 -0.1792161 0.30626476 -0.2226763 0.15326576 -0.22345984
0.15584472 -0.05210452 -0.2494064 0.16356818 0.15419112 0.056393433 0.29099247 0.30519453
-0.1257002 0.100648776 -0.051430233 -0.19386518 -0.040444996 -0.012616357 0.18544935 0.012941043
0.0144410385 0.029844811 -0.15570238 0.09467455 0.20637079 0.12687144 0.18792069 0.004250041
-0.20296751 -0.18554875 -0.16359273 0.26054662 0.08744611 0.060093045 -0.04286026 -0.17027928
-0.08207772 -0.09279593 -0.16043283 -0.03331339 0.02489072 -0.0531843 0.009606701 -0.04578357
0.01042195 0.09623356 -0.1733948 -0.23592518 -0.35891548 0.15999982 -0.16689783 -0.023204032
-0.20006108 0.06576196 -0.15451677 -0.20872074 -0.048828844 -0.032975923 -0.11599851 -0.0056641875
0.15342756 0.035450924 0.08468732 -0.0076707397 -0.07345075 0.23221056 0.18530639 0.2579438
00000000: 0916 423e 6b18 7cbd 9b2b 443e cc41 36be
00000010: c2a5 9bbe 5754 a23d 3854 ecbd 5b8d 4c3b
00000020: 8664 023e 82ae 083e df61 0dbe ac37 25be
00000030: a41a c13d 816e 443d 0fd4 35be 9a97 253e
00000040: 98f3 743d c385 27bb 82e8 993c 199c c2bd
00000050: 8b2e 93be 6cef 0b3e 0670 84be 9044 13be
00000060: 003a 8fbd a9de 6e3d 5a7e 57be f45f 773d
00000070: 0670 e0bb e813 0c3d 32c9 c73c 7680 b83d
00000080: c383 a4bd ccd6 ac3d a49f c3bd d9fd 8abe
00000090: 2ac3 d0bb e0a3 753e d257 a53d 7238 7c3d
000000a0: b5b7 073e c95c 71bc 0937 6dbe 52f1 71bd
000000b0: a7bd c23e 7ca9 0f3e ad91 f63d be9b 9a3d
000000c0: eb57 e1bd 0cb3 d83c c3be 60bd 93c1 0e3e
000000d0: 9399 943e 38b8 efbd 4298 42bd 707c 28bc
000000e0: ae76 c0bc ce22 2cbd f067 8ebe 96cf 14bd
000000f0: bc83 5ebd b9eb 93be ca70 403e 2a37 093e
00000100: 4b9e 713c 2dde c2bc 8380 08bd ea0e 0cbe
00000110: 2aba 1bbd 2688 ea3d 2fed 81bc 8cfa 12be
00000120: b2f0 49be d65e b33d 5da2 c3bd 6918 ae3d
00000130: 208b 12bd f84b 973e f0b2 afbd 3102 8a3e
00000140: 3ffc 10be d264 2b3e de05 5ebc 99c6 2dbd
00000150: a588 6ebd ea54 a23b 8ef8 293d 44ac 643d
00000160: e514 1b3e eacb be3d fb9d e33d d235 5abe
00000170: 2b2f 59ba 676f 0a3c df78 a1be 5d3e e83d
00000180: 56df 2fbe 1c7d 5fbe ef4e 87bd f2a9 153e
00000190: 30ce 8d3b 8b93 d83d 183c 7f3d 9518 023e
000001a0: 988f 80be e3f0 473e f502 db3d 5038 153d
000001b0: 7d21 90be da49 24be bcc0 ab3d 62d7 4a3e
000001c0: 1c88 2e3e 652b 643e 0e88 30bd d691 8fbe
000001d0: 2aba 343e 17b6 a93d bac2 763e 2383 48be
000001e0: 2542 643e f214 82bd 79c2 2abe c590 44be
000001f0: 231a 1d3e 3164 803d d6f3 493a ece3 b03e
00000200: 067e 2f3d c08b 78be e662 573e 67df a8bd
00000210: 3607 65be e080 7dbe 12b4 0fbc fda9 bcbc
00000220: cdef 1a3e 43f7 43be 3e6c e73d 1daa debc
00000230: e028 103e a101 a33d 126a 09be 12cc 013e
00000240: 6394 e43d ad7c e3bd 0003 e9bd daa7 873e
00000250: 4db5 34be 7b50 eebc d677 4ebe f550 38be
00000260: 7f2c 773e 4f3b f33d fed0 353e 4be7 913d
00000270: e329 db3d 8f82 c0bd 1893 4bbd c905 283e
00000280: e278 183e b167 68be 6c00 97bc e811 67be
00000290: e6b9 273d 817e 90be d13f 1cbe d9af 5d3e
000002a0: 0373 dabd c0a7 853e a896 d43d e26e 8c3d
000002b0: 167f 623d d8cb 183e fe07 63bc 95cf c8bd
000002c0: 0825 d43d 1452 55be edb6 e4bc 90fc ebbd
000002d0: d62b 333e 314f 973d 985e 15be 5daf 653e
000002e0: 52d5 a7be a37c 3b3e 1ee3 33bc 6d84 37be
000002f0: bcce 9c3e 4205 64be b3f1 1c3e a8d2 64be
00000300: c295 1f3e 8d6b 55bd 6464 7fbe 6b7e 273e
00000310: 47e4 1d3e cdfc 663d f7fc 943e 7542 9c3e
00000320: 8eb7 00be f220 ce3d 82a8 52bd 9884 46be
00000330: a7a9 25bd d6b4 4ebc 6fe6 3d3e ab06 543c
00000340: 1b9a 6c3c 1b7d f43c 7270 1fbe bbe4 c13d
00000350: dd52 533e 96ea 013e 486e 403e ee43 8b3b
00000360: b7d6 4fbe 7e00 3ebe da84 27be 5e66 853e
00000370: f216 b33d 2024 763d 3d8e 2fbd b15d 2ebe
00000380: 5d18 a8bd cb0b bebd 8148 24be 9f73 08bd
00000390: a0e7 cb3c c8d7 59bd 6d65 1d3c 8d87 3bbd
000003a0: d4c0 2a3c 1a16 c53d 688e 31be 5f96 71be
000003b0: c5c3 b7be fed6 233e 44e7 2abe 6216 bebc
000003c0: d0dc 4cbe 35ae 863d a539 1ebe e4ba 55be
000003d0: c100 48bd c311 07bd a090 edbd a69a b9bb
000003e0: 1d1c 1d3e fd34 113d 8c70 ad3d d45a fbbb
000003f0: 596d 96bd 9bc8 6d3e f5c0 3d3e 3611 843e

conv1.bias f4 [16]
-0.13828751 -0.056102935 -0.14506641 0.10098966 0.1183356 -0.13366963 0.15846789 0.08465906
0.12312515 -0.092534564 -0.07126766 -0.102464646 0.101591244 0.01489713 0.06387959 0.21901836
00000000: 3e9b 0dbe 31cc 65bd 4a8c 14be abd3 ce3d
00000010: ef59 f23d b1e0 08be 6845 223e bb61 ad3d
00000020: 0a29 fc3d c382 bdbd c7f4 91bd fcd8 d1bd
00000030: 120f d03d 1813 743c 4dd3 823d 5946 603e

conv2.weight f4 [16, 16, 3, 3]
-0.0042005647 -0.0764731 -0.024656663 0.053226043 -0.13479826 0.06683836 -0.07028529 0.056335002
-0.09179634 -0.07133541 -0.008019864 0.12995513 0.017841933 0.08485476 0.033315115 -0.077516906
-0.086531684 0.107887655 0.037065312 0.11998615 -0.05615237 -0.08517453 0.18122323 0.13954633
-0.03374934 0.034978494 0.13874063 0.05589768 -0.050819248 -0.12457637 -0.045487326 0.043033093
-0.052849036 -0.023491764 0.11634173 -0.16444042 -0.04282488 -0.08731431 0.032062054 -0.101025954
0.044927653 0.037820283 -0.13220182 0.03876819 -0.060853343 -0.059607193 0.15767306 0.22405082
0.040829163 0.08487864 0.014312299 -0.0076606665 0.021158507 -0.023840865 0.047341064 0.053244602
0.012043756 0.03900505 0.11532791 -0.045486957 -0.08038392 0.05297596 -0.03810762 0.12910819
-0.11010817 -0.15173927 0.0017732623 0.08537818 0.03198481 0.092925034 -0.036805157 0.16891737
0.13329369 0.079301395 0.03965384 0.11860636 0.072206706 0.044355914 -0.03201503 0.09822862
-0.085668154 -0.06395237 0.11623227 -0.0065340814 0.047941536 -0.11161958 0.035321224 -0.12668857
-0.005358174 -0.047923774 0.13596046 -0.07397228 -0.05938192 -0.020665064 0.02980818 0.02171669
0.030074177 0.14551997 -0.14155103 0.12851812 0.068780035 -0.054303274 0.00023860403 0.041205555
-0.05572679 0.10347377 0.023622464 0.052596316 -0.015600297 0.04042445 0.14707781 -0.03563029
-0.036581367 0.032506056 -0.10716946 -0.08798313 -0.09080382 -0.0148839 -0.038016155 0.102717824
-0.011120557 0.12777025 -0.04603159 -0.0025696952 -0.09766043 -0.046434492 -0.09889196 0.024437012
0.1024052 0.107355274 -0.027560215 -0.11336727 -0.029411783 -0.03350892 -0.08261555 0.08077382
-0.053674497 0.14030163 -0.06506503 0.09957311 -0.071884766 -0.034534525 -0.012593597 -0.04880825
-0.00957041 0.018543676 0.059359945 0.010290204 0.2619293 -0.073848896 -0.053137716 0.11361566
-0.11171465 0.027805386 0.033186883 -0.08946634 0.13556635 0.09372754 0.029199006 0.05305216
0.0014663214 -0.01999269 0.047361113 0.17787209 0.085226044 -0.086230315 -0.062349375 0.0610489
-0.18522473 0.008683877 -0.18842345 0.019370044 0.10686796 -0.04758207 0.011770916 0.14819027
-0.03500395 -0.0280918 0.11666258 -0.007924768 -0.18246478 0.0011161494 0.10096235 -0.14140746
0.04554975 0.051831994 -0.20210022 0.112697795 0.011371861 -0.07775995 0.06615745 -0.056234032
0.047780853 0.14012295 0.09883111 -0.049897574 -0.072105944 0.018043956 0.11777043 0.15085068
-0.024895482 -0.099269025 -0.13803615 0.01621049 0.17036296 -0.049276885 -0.1190173 0.047442015
0.10781066 -0.083173156 0.055936538 -0.028589798 0.08446401 0.042901363 -0.077480674 -0.026998984
-0.13297236 -0.008709249 0.07909445 -0.047422297 -0.03602243 -0.1363453 -0.027448012 0.006999302
-0.04179768 0.033121534 0.11465465 0.111012116 0.07263179 0.024939379 -0.0052402276 0.022129092
0.04192038 0.044060547 -0.052748367 0.11909314 0.027925948 -0.002314581 0.03504369 -0.024458861
-0.05638435 -0.09060562 -0.015350061 0.018905824 -0.07397705 0.047325872 -0.025020128 -0.16063501
-0.016488573 -0.032133747 -0.110631935 -0.0765475 -0.00554141 -0.0037965458 0.095134504 0.06940229
00000000: e4a4 89bb ee9d 9cbd c5fc c9bc 8d03 5a3d
00000010: 8e08 0abe 8de2 883d bcf1 8fbd 88bf 663d
00000020: b8ff bbbd 4d18 92bd bf65 03bc f512 053e
00000030: 3f29 923c 55c8 ad3d 6e75 083d 2fc1 9ebd
00000040: 8637 b1bd 34f4 dc3d ccd1 173d 4cbb f53d
00000050: 0700 66bd fc6f aebd 9592 393e 3ce5 0e3e
00000060: bf3c 0abd 9c45 0f3d 0612 0e3e f7f4 643d
00000070: d827 50bd e521 ffbd eb50 3abd 7843 303d
00000080: 3b78 58bd cd71 c0bc 9344 ee3d 1263 28be
00000090: 2469 2fbd d8d1 b2bd 8053 033d b2e6 cebd
000000a0: 0f06 383d 71e9 1a3d ea5f 07be 65cb 1e3d
000000b0: 5b41 79bd ac26 74bd 0c75 213e 946d 653e
000000c0: 7b3c 273d dad4 ad3d 227e 6a3c 5406 fbbb
000000d0: 9b54 ad3c eb4d c3bc b4e8 413d 0317 5a3d
000000e0: 2d53 453c c2c3 1f3d 0a31 ec3d 8850 3abd
000000f0: 53a0 a4bd 52fd 583d bc16 1cbd f034 043e
00000100: 6480 e1bd 8a61 1bbe cf6c e83a c1da ae3d
00000110: 8102 033d 7b4f be3d 01c1 16bd adf8 2c3e
00000120: 247e 083e c568 a23d 116c 223d e4e7 f23d
00000130: 1ce1 933d 8cae 353d 3122 03bd 162c c93d
00000140: c972 afbd 76f9 82bd 2f0b ee3d d91b d6bb
00000150: 585e 443d ce98 e4bd fdac 103d a6ba 01be
00000160: 9f93 afbb b84b 44bd 3839 0b3e c77e 97bd
00000170: 753a 73bd c849 a9bc 4930 f43c 33e7 b13c
00000180: 1f5e f63c 3003 153e c1f2 10be 419a 033e
00000190: 8cdc 8c3d 1c6d 5ebd c831 7a39 28c7 283d
000001a0: c641 64bd 0eea d33d e683 c13c 3c6f 573d
000001b0: 6398 7fbc 1c94 253d 919b 163e 11f1 11bd
000001c0: 58d6 15bd 1225 053d a97b dbbd 8030 b4bd
000001d0: 5af7 b9bd 9adb 73bc d4b6 1bbd b95d d23d
000001e0: ff32 36bc 34d6 023e 9f8b 3cbd 5568 28bb
000001f0: 3102 c8bd 1832 3ebd de87 cabd 2130 c83c
00000200: d1b9 d13d 15dd db3d f6c5 e1bc 192d e8bd
00000210: fbf0 f0bc a640 09bd 5732 a9bd bf6c a53d
00000220: cad9 5bbd 3bab 0f3e d040 85bd fdec cb3d
00000230: 5238 93bd 1374 0dbd 6055 4ebc 29eb 47bd
00000240: 35cd 1cbc e8e8 973c 6a23 733d 3e98 283c
00000250: 991b 863e 173e 97bd efa6 59bd 54af e83d
00000260: a7ca e4bd 1fc8 e33c f8ee 073d 213a b7bd
00000270: e8d1 0a3e 39f4 bf3d c132 ef3c 394d 593d
00000280: 9531 c03a b6c7 a3bc bafd 413d 1a24 363e
00000290: fe8a ae3d 8599 b0bd 0f62 7fbd 690e 7a3d
000002a0: 8dab 3dbe d246 0e3c 14f2 40be edad 9e3c
000002b0: 97dd da3d 6be5 42bd cdda 403c 31bf 173e
000002c0: 4d60 0fbd c620 e6bc caec ee3d e3d6 01bc
000002d0: 0cd8 3abe c24b 923a 59c5 ce3d 1ecd 10be
000002e0: 6092 3a3d c94d 543d 5cf3 4ebe 1ace e63d
000002f0: 0b51 3a3c 9c40 9fbd 8f7d 873d a855 66bd
00000300: dbb5 433d 647c 0f3e f767 ca3d 6661 4cbd
00000310: 48ac 93bd ebd0 933c a031 f13d 9a78 1a3e
00000320: 9cf1 cbbc 8f4d cbbd 5959 0dbe ddcb 843c
00000330: a173 2e3e 8fd6 49bd 58bf f3bd 8f52 423d
00000340: d6cb dc3d b056 aabd b61d 653d 2735 eabc
00000350: 78fb ac3d 57b9 2f3d 30ae 9ebd f92c ddbc
00000360: e829 08be 3db1 0ebc 45fc a13d e23d 42bd
00000370: 418c 13bd 1a9e 0bbe a7da e0bc 675a e53b
00000380: 0b34 2bbd 72aa 073d 0fd0 ea3d 525a e33d
00000390: fabf 943d ab4d cc3c 37b6 abbb 1248 b53c
000003a0: b4b4 2b3d d578 343d ac0e 58bd 1be7 f33d
000003b0: f5c4 e43c 3ab0 17bb f989 0f3d f35d c8bc
000003c0: 47f3 66bd 708f b9bd d27e 7bbc 63e0 9a3c
000003d0: 4881 97bd c6d8 413d 03f7 ccbc 817d 24be
000003e0: 0b13 87bc ad9e 03bd ff92 e2bd f0c4 9cbd
000003f0: b794 b5bb 78cf 78bb e1d5 c23d ca22 8e3d

conv2.bias f4 [16]
0.013660064 0.06986086 -0.050176885 -0.0033451065 0.034686577 -0.059675608 0.042226873 0.055103406
0.0065167756 0.0014404526 -0.06274271 0.023631543 -0.043953422 -0.06936787 0.015526047 -0.013222205
00000000: 76ce 5f3c 3613 8f3d 4786 4dbd 9339 5bbb
00000010: 8313 0e3d 696e 74bd 16f6 2c3d 1cb4 613d
00000020: ad8a d53b 92cd bc3a 407f 80bd f096 c13c
00000030: 8108 34bd be10 8ebd f660 7e3c f3a1 58bc

conv3.weight f4 [16, 16, 3, 3]
-0.09860559 0.13350552 0.1071939 -0.114750326 -0.047958404 0.006676774 -0.019129325 0.058685265
0.10077108 -0.02440664 0.06461438 -0.07640082 0.09857734 0.09044617 -0.035852976 -0.059688408
0.09807083 -0.113792345 0.094628245 -0.04861017 0.11422728 0.07355367 -0.08587957 0.09206977
-0.090726025 -0.030327484 -0.05935737 -0.03653159 0.13410632 -0.045276657 -0.041142948 0.0727299
0.054038197 -0.083693966 0.09727127 -0.056826364 0.045033723 -0.13867627 0.01802344 -0.024030676
-0.06618212 -0.008278502 0.04266977 0.0207642 0.06019473 0.13654199 -0.07472997 -0.07372437
-0.024693845 -0.06160271 0.13532361 0.009519231 -0.060176596 0.103458434 -0.06928976 0.05258566
-0.025193144 0.064480625 0.010535172 -0.14872836 -0.022319214 -0.010404001 -0.029911358 0.01809122
-0.101300575 0.11715973 -0.15858816 -0.09289622 0.03294977 -0.029880535 -0.086761415 -0.031061158
-0.017777083 -0.05168486 0.086695686 0.11595701 0.031863272 -0.048404235 -0.07605484 0.034748785
0.08059091 0.12456586 0.033641946 0.028112516 -0.046547502 -0.10294756 -0.121332966 -0.004476163
0.09865767 0.07161309 0.051658336 0.02849027 0.05550166 0.1176831 -0.025642784 0.022313718
-0.03826954 0.07295802 0.011315107 0.025227573 0.06206023 0.0910476 -0.043206632 0.036555175
0.027616788 0.15746951 -0.012518695 0.059421476 0.110952914 0.07393237 0.08693946 -0.026294673
0.04315831 -0.037518896 0.02780263 -0.008341483 0.088422336 0.13482384 0.17406683 0.19052398
0.02605309 0.06695555 0.059697375 0.06591811 -0.06007344 0.31449464 0.0034583884 -0.039189845
0.0067354483 0.055693194 -0.08997519 -0.020302316 0.09120349 0.020493956 0.054881774 -0.032752465
-0.03866311 0.08260664 -0.18869267 -0.046581343 -0.008200065 0.05935408 0.12679824 -0.028866285
-0.010672204 -0.16201252 -0.05750814 0.055481985 0.010073274 0.1305855 -0.033944014 0.056369454
0.01490347 -0.048273366 -0.08007309 0.043747984 0.1636012 -0.05235718 0.031809557 -0.020243157
-0.12953252 0.09896441 -0.055935964 0.084866986 0.14656599 0.111872785 -0.041187484 0.020728143
0.0035331016 -0.02346549 -0.13365863 -0.005006068 0.033044454 -0.11441612 -0.09880215 -0.06603194
-0.16165128 -0.052546844 -0.03819096 -0.012674115 -0.033525713 0.14715265 0.11388756 -0.033472948
-0.092695296 -0.103617616 0.09010516 -0.003360037 0.08505351 0.1443831 -0.028785538 0.0766265
-0.056280922 0.059916764 -0.05518714 0.06897543 0.021553421 0.01200022 0.13069609 0.0070020086
0.054805893 0.063461356 0.032047156 0.027989306 -0.053866625 0.0050716316 -0.10093331 0.016004119
-0.018551512 -0.046112467 -0.14442742 -0.05398739 -0.08400675 -0.16034825 -0.043926448 0.0018058065
0.03619621 0.13368955 -0.01947497 0.040505555 0.03782026 0.015110271 -0.054774307 -0.1312447
0.18924147 -0.022525491 -0.017253317 0.020956526 -0.004625572 -0.110317506 0.05168688 0.08700465
-0.02184677 0.032973107 -0.0434688 -0.066409655 -0.10786836 0.085208096 0.024341673 0.09940813
0.0738015 -0.03420554 -0.021589944 0.15056123 0.080911264 -0.033543225 0.14766827 0.064291365
0.08376714 -0.035865366 -0.063655145 0.02976747 0.06960242 -0.021704754 0.03420576 0.11234425
00000000: baf1 c9bd acb5 083e 7a88 db3d 3802 ebbd
00000010: 0870 44bd d7c8 da3b 1ab5 9cbc f65f 703d
00000020: 1161 ce3d 6ff0 c7bc 8b54 843d 0878 9cbd
00000030: ebe2 c93d d73b b93d 92da 12bd d57b 74bd
00000040: 5cd9 c83d f60b e9bd 74cc c13d 751b 47bd
00000050: feef e93d 4ea3 963d a1e1 afbd 138f bc3d
00000060: 91ce b9bd 5871 f8bc b720 73bd 26a2 15bd
00000070: 2b53 093e 0474 39bd 8285 28bd 6af3 943d
00000080: 2857 5d3d be67 abbd 2936 c73d c3c2 68bd
00000090: 4875 383d 2701 0ebe e5a5 933c fbdb c4bc
000000a0: 7e8a 87bd 8ea2 07bc 7fc6 2e3d af19 aa3c
000000b0: c08e 763d aad1 0b3e 070c 99bd cdfc 96bd
000000c0: bf4a cabc 2053 7cbd 4692 0a3e 8cf6 1b3c
000000d0: bc7b 76bd 04e2 d33d cae7 8dbd 1064 573d
000000e0: da61 cebc 6b0e 843d b79b 2c3c 3f4c 18be
000000f0: c9d6 b6bc 8b75 2abc aa08 f5bc 0a34 943c
00000100: ad76 cfbd 71f1 ef3d ef64 22be 6040 bebd
00000110: 57f6 063d 06c8 f4bc f8af b1bd f873 febc
00000120: 3fa1 91bc 81b3 53bd 828d b13d de7a ed3d
00000130: 1083 023d 8543 46bd a4c2 9bbd be54 0e3d
00000140: d90c a53d 631c ff3d 23cc 093d 384c e63c
00000150: 98a8 3ebd 2cd6 d2bd 6b7d f8bd c7ac 92bb
00000160: 080d ca3d e2a9 923d b197 533d 6d64 e93c
00000170: b555 633d d603 f13d d110 d2bc 42cb b63c
00000180: 85c0 1cbd 046b 953d 0063 393c 0eaa ce3c
00000190: de32 7e3d 2a77 ba3d 70f9 30bd e1ba 153d
000001a0: 9a3c e23c b03f 213e 361b 4dbc ef63 733d
000001b0: 483b e33d db69 973d 510d b23d ed67 d7bc
000001c0: c5c6 303d 6aad 19bd 57c2 e33c b7aa 08bc
000001d0: c516 b53d 430f 0a3e 933e 323e b818 433e
000001e0: 4a6d d53c fe1f 893d 3c85 743d 1300 873d
000001f0: 910f 76bd 7105 a13e 21a6 623b 8885 20bd
00000200: 09b5 dc3b 8c1e 643d ea44 b8bd 0b51 a6bc
00000210: e5c8 ba3d f1e2 a73c b6cb 603d 7327 06bd
00000220: 365d 1ebd ac2d a93d a738 41be 14cc 3ebd
00000230: 9159 06bc 441d 733d 66d7 013e fd78 ecbc
00000240: 78da 2ebc 9ce6 25be a88d 6bbd 1441 633d
00000250: 600a 253c 35b8 053e e108 0bbd a8e3 663d
00000260: af2d 743c 4bba 45bd 5cfd a3bd 1631 333d
00000270: 1387 273e 7b74 56bd bd4a 023d fad4 a5bc
00000280: 2ca4 04be daad ca3d 1c1d 65bd bece ad3d
00000290: 6515 163e 8f1d e53d 35b4 28bd 11ce a93c
000002a0: 9c8b 673b b33a c0bc cfdd 08be f109 a4bb
000002b0: 9f59 073d 0053 eabd c858 cabd c13b 87bd
000002c0: ea87 25be 5c3b 57bd 206e 1cbd 17a7 4fbc
000002d0: 4252 09bd 2faf 163e e23d e93d ee1a 09bd
000002e0: 08d7 bdbd 7935 d4bd 0e89 b83d 1134 5cbb
000002f0: 8930 ae3d 2ad9 133e a6cf ebbc 5bee 9c3d
00000300: d386 66bd 486b 753d e90b 62bd fe42 8d3d
00000310: cd90 b03c 929c 443c 32d5 053e 1b71 e53b
00000320: 257c 603d 07f8 813d e143 033d d449 e53c
00000330: 40a3 5cbd ee2f a63b 20b6 cebd 121b 833c
00000340: 57f9 97bc 6de0 3cbd c8e4 13be e221 5dbd
00000350: bb0b acbd 5532 24be 38ec 33bd d0b0 ec3a
00000360: 7a42 143d eae5 083e f989 9fbc 27e9 253d
00000370: 6be9 1a3d 1291 773c 065b 60bd 0365 06be
00000380: 84c8 413e 6187 b8bc d456 8dbc 05ad ab3c
00000390: 1c92 97bb 25ee e1bd 9fb5 533d 7e2f b23d
000003a0: fff7 b2bc cf0e 073d 570c 32bd c901 88bd
000003b0: 16ea dcbd 9581 ae3d 3068 c73c 7d96 cb3d
000003c0: 3e25 973d 1c1b 0cbd 65dd b0bc b92c 1a3e
000003d0: ceb4 a53d 9f64 09bd 5a36 173e 31ab 833d
000003e0: 1b8e ab3d 90e7 12bd a15d 82bd e9da f33c
000003f0: b78b 8e3d 2bce b1bc 571b 0c3d be14 e63d

conv3.bias f4 [16]
0.037331074 -0.014356511 -0.042899225 -0.035887014 -0.03157446 0.0333564 -0.04367974 0.05897256
-0.038028743 0.04040299 0.048642617 -0.07614821 -0.06410087 0.059964437 0.04705407 -0.043269195
00000000: 78e8 183d 9237 6bbc 19b7 2fbd 43fe 12bd
00000010: 3954 01bd b8a0 083d 87e9 32bd 368d 713d
00000020: 07c4 1bbd 9b7d 253d 7b3d 473d 98f3 9bbd
00000030: 5147 83bd 459d 753d c5bb 403d 0a3b 31bd

conv4.weight f4 [16, 16, 3, 3]
-0.17903137 0.020087386 -0.17085564 -0.18745895 -0.021100713 -0.0792286 0.03548392 -0.120610975
-0.09447311 -0.062986076 0.06401254 -0.13531122 -0.115671895 0.011137333 -0.023034971 0.062218666
0.039685555 -0.10101756 0.024631985 -0.09820087 0.102047876 -0.094444096 0.03735556 -0.0028217435
-0.10751235 0.00031304776 -0.03597004 0.04619204 0.033368167 -0.053346142 -0.057310067 -0.09880739
0.03319097 -0.14720942 -0.08188422 0.020966586 -0.0059614484 -0.07442957 -0.0060267844 0.03562472
-0.0627213 0.04503985 -0.028171536 0.047632113 -0.060993314 0.015020834 -0.0599251 -0.019767879
-0.07084374 -0.147292 0.02772651 -0.020449765 -0.061989028 0.019133957 -0.012449602 -0.027468713
0.0889806 -0.1151431 -0.117206186 -0.1038488 -0.17334469 -0.11335261 -0.05101109 0.015136515
-0.029938363 -0.17158656 -0.00539781 -0.10816177 -0.16331002 -0.016003424 0.10656769 -0.067428805
0.01769457 0.11208378 -0.0636693 -0.02647776 0.012767818 -0.051969558 -0.09916569 -0.16271824
0.04845512 -0.019366562 -0.023498708 -0.01733738 -0.047437407 0.024635386 0.013752028 -0.0024915212
0.06365465 -0.12965403 -0.11729013 -0.014275685 -0.17139012 0.009670432 -0.08912296 0.008480131
0.080765426 -0.044617116 -0.059035044 -0.033321157 0.018325664 -0.08122204 0.020795027 -0.040319055
0.13442199 -0.07703246 0.07075041 0.0029098152 -0.1000866 -0.15005015 -0.046635866 0.09903894
-0.014004503 0.0012485158 -0.02908931 0.05868935 -0.07787065 0.07088081 0.11127236 -0.06654492
0.020145305 -0.10832402 0.0036196646 -0.08748379 0.14527641 -0.04811557 0.008731053 0.035700038
0.16173582 0.013804563 -0.00031232974 -0.03300945 -0.09817893 0.053060174 -0.072518356 0.011223282
-0.11185572 0.0077771605 -0.065879926 -0.07161943 -0.056399968 -0.12970532 0.02813691 0.027612332
-0.02630716 0.0076843216 0.060244765 0.0011172517 0.10413661 -0.095032446 0.14347667 -0.15708196
0.044711597 0.14735779 0.05389482 -0.07180073 -0.024390575 -0.07500677 -0.22681606 -0.07341633
-0.03210732 -0.07003221 -0.051124353 0.046909682 -0.014711476 -0.09008261 -0.0526003 0.0693013
-0.00820713 0.013500073 0.04098645 0.050872806 0.07488707 -0.0026986354 0.0055538663 -0.0076335752
0.13636908 -0.092298575 -0.09974452 -0.0048395447 0.05872227 0.06539384 -0.051142845 -0.10797876
0.063941926 0.18739481 0.039567724 0.02570082 0.15361266 -0.07295389 0.019437838 0.030484121
0.024103006 -0.08799885 0.019396015 0.0832658 -0.0927569 -0.20728412 -0.041486565 0.019082574
0.01344536 0.098041505 -0.013732385 -0.02260504 -0.15589781 -0.06302291 -0.0891687 0.08765791
-0.06404786 0.02478095 -0.059070364 -0.048369486 0.0467058 0.08339316 0.096020594 0.049497116
-0.10662644 0.14976856 0.04502736 0.099178776 -0.11896739 0.008811847 -0.047951452 -0.026759513
-0.031961642 -0.029749207 0.09735315 -0.066237055 0.09756439 -0.018554606 0.21889842 -0.09999557
-0.14603865 0.06788651 0.019727947 -0.06252726 -0.10683761 -0.05301853 -0.10626843 0.15046401
-0.057824235 0.06831579 -0.018868003 -0.20921968 -0.052360315 0.014666938 -0.1005997 -0.023599375
0.0770519 -0.059306905 -0.053515073 -0.1167263 -0.0152448015 0.011755882 -0.0072848434 0.044709314
00000000: 0054 37be 4d8e a43c c8f4 2ebe 3df5 3fbe
00000010: 67db acbc 9b42 a2bd 9657 113d e302 f7bd
00000020: 1e7b c1bd d8fe 80bd 0219 833d 068f 0abe
00000030: 63e5 ecbd 5c79 363c d6b3 bcbc 00d9 7e3d
00000040: 528d 223d 4be2 cebd 04c9 c93c 8a1d c9bd
00000050: 7afe d03d e86b c1bd 2502 193d 00ed 38bb
00000060: 6f2f dcbd 8f20 a439 5255 13bd dd33 3d3d
00000070: 0fad 083d 7c81 5abd f6bd 6abd 875b cabd
00000080: 41f3 073d 11be 16be eab2 a7bd 1ec2 ab3c
00000090: 4158 c3bb 886e 98bd 557c c5bb 3aeb 113d
000000a0: 0674 80bd b57b 383d fec7 e6bc e419 433d
000000b0: 20d4 79bd f219 763c 0674 75bd 3ff0 a1bc
000000c0: 8616 91bd b7d3 16be b522 e33c 4486 a7bc
000000d0: 35e8 7dbd d1be 9c3c 6af9 4bbc 1106 e1bc
000000e0: 763b b63d 25d0 ebbd cc09 f0bd aeae d4bd
000000f0: 4581 31be 6a25 e8bd 01f1 50bd 25ff 773c
00000100: 4c41 f5bc 63b4 2fbe 1de0 b0bb eb83 ddbd
00000110: be3a 27be 9d19 83bc 2940 da3d 1d18 8abd
00000120: 34f4 903c 2e8c e53d 0d65 82bd e3e7 d8bc
00000130: 1c30 513c 08de 54bd 6217 cbbd 9c9f 26be
00000140: e078 463d a0a6 9ebc 5d80 c0bc 1f07 8ebc
00000150: ba4d 42bd 26d0 c93c 3050 613c ca48 23bb
00000160: 5e5d 823d 07c4 04be cf35 f0bd 90e4 69bc
00000170: e480 2fbe bb70 1e3c 1986 b6bd 3ff0 0a3c
00000180: 5868 a53d 70c0 36bd bbce 71bd c47b 08bd
00000190: b41f 963c be57 a6bd 555a aa3c 9825 25bd
000001a0: eba5 093e 32c3 9dbd 97e5 903d 99b2 3e3b
000001b0: 34fa ccbd bfa6 19be 4005 3fbd eed4 ca3d
000001c0: 2573 65bc 3da5 a33a b44c eebc 3e64 703d
000001d0: a67a 9fbd f529 913d c3e2 e33d b448 88bd
000001e0: c407 a53c fcd8 ddbd e537 6d3b b42a b3bd
000001f0: 57c3 143e d514 45bd b10c 0f3c 343a 123d
00000200: 139e 253e 892c 623c 30c0 a3b9 eb34 07bd
00000210: 0912 c9bd a055 593d 8184 94bd dbe1 373c
00000220: 9d14 e5bd 8dd7 fe3b 0eec 86bd 35ad 92bd
00000230: a703 67bd 79d1 04be 617f e63c 4233 e23c
00000240: 1d82 d7bc c3cc fb3b 37c3 763d bf70 923a
00000250: 9345 d53d 5fa0 c2bd 8ceb 123e 18da 20be
00000260: 8223 373d f6e4 163e d1c0 5c3d 430c 93bd
00000270: bece c7bc 269d 99bd 7842 68be 4d5b 96bd
00000280: f782 03bd 0c6d 8fbd c567 51bd 5e24 403d
00000290: 6708 71bc 3b7d b8bd 6a73 57bd d7ed 8d3d
000002a0: 3377 06bc 692f 5d3c 68e1 273d 0160 503d
000002b0: 645e 993d 97db 30bb 35fd b53b 1223 fabb
000002c0: 56a4 0b3e 0907 bdbd db46 ccbd 0b95 9ebb
000002d0: c386 703d 35ed 853d 297b 51bd f823 ddbd
000002e0: fcf3 823d 6de4 3f3e c411 223d 878a d23c
000002f0: a34c 1d3e d968 95bd 1a3c 9f3c d6b9 f93c
00000300: ab73 c53c be38 b4bd 64e4 9e3c 4287 aa3d
00000310: 54f7 bdbd 4a42 54be d1ed 29bd 0f53 9c3c
00000320: ed49 5c3c fcc9 c83d ccfd 60bc 342e b9bc
00000330: ada3 1fbe 2812 81bd 149e b6bd fe85 b33d
00000340: 862b 83bd 6b01 cb3c c4f3 71bd 151f 46bd
00000350: 954e 3f3d 08ca aa3d 72a6 c43d 7dbd 4a3d
00000360: f75e dabd ee5c 193e 9c6e 383d 3e1e cb3d
00000370: 2da5 f3bd 915f 103c be68 44bd c436 dbbc
00000380: 36ea 02bd 9cb4 f3bc 1761 c73d 4ba7 87bd
00000390: d7cf c73d d4ff 97bc e826 603e 7aca ccbd
000003a0: 288b 15be 1508 8b3d 819c a13c 4b0e 80bd
000003b0: adcd dabd f529 59bd 43a3 d9bd 3d13 1a3e
000003c0: 1bd9 6cbd 26e9 8b3d 1291 9abc af3d 56be
000003d0: c577 56bd 994d 703c 3707 cebd 7a53 c1bc
000003e0: 63cd 9d3d cceb 72bd 9f32 5bbd 330e efbd
000003f0: 55c5 79bc be9b 403c b2b5 eebb 1d21 373d

conv4.bias f4 [16]
-0.017522804 -0.032699667 0.007207945 0.080182016 0.08441022 0.047196373 0.031972498 -0.061694127
-0.016910072 -0.023053775 0.01350227 -0.044814646 -0.04273239 0.028771538 0.067200564 -0.021802569
00000000: fc8b 8fbc 16f0 05bd a030 ec3b 7836 a43d
00000010: 44df ac3d fc50 413d 98f5 023d fbb2 7cbd
00000020: fe86 8abc 45db bcbc a038 5d3c 908f 37bd
00000030: 2908 2fbd 4ab2 eb3c 73a0 893d 4d9b b2bc

bn1.weight f4 [16]
1.0990995 0.9840833 1.1028981 0.8692902 0.9550949 0.9627975 1.0546253 0.9767512
1.0308311 0.9407078 1.0127152 1.0118179 0.97845215 0.9963099 0.9924956 0.9306328
00000000: 4baf 8c3f e2ec 7b3f c42b 8d3f cd89 5e3f
00000010: 1981 743f e679 763f f6fd 863f 5e0c 7a3f
00000020: 46f2 833f 3ad2 703f a7a0 813f 4083 813f
00000030: d77b 7a3f 2a0e 7f3f 3114 7e3f f43d 6e3f

bn1.bias f4 [16]
0.05604554 -0.14099604 -0.057752267 -0.2439871 -0.206418 -0.060833618 -0.11077149 -0.17776254
0.014319689 -0.1753344 -0.15485878 -0.11734004 -0.07608329 -0.13440996 -0.07611108 -0.07363449
00000000: 0290 653d 4461 10be a48d 6cbd c1d7 79be
00000010: 3d5f 53be ac2c 79bd 2adc e2bd 6207 36be
00000020: 219d 6a3c dc8a 33be 4d93 1ebe fa4f f0bd
00000030: 8ed1 9bbd c4a2 09be 20e0 9bbd aecd 96bd

bn1.running_mean f4 [16]
-0.20353276 0.05587923 -0.36031866 0.41378006 0.4672096 0.20968342 0.5786157 0.26723012
-0.21504171 -0.039698377 0.14031039 -0.42376962 0.405543 0.43112722 -0.3006176 -0.1400258
00000000: e46a 50be 9fe1 643d b07b b8be fbda d33e
00000010: 1936 ef3e 40b7 563e 2920 143f 63d2 883e
00000020: e533 5cbe c49a 22bd 87ad 0f3e 55f8 d8be
00000030: 55a3 cf3e b5bc dc3e 8dea 99be ec62 0fbe

bn1.running_var f4 [16]
1.2810845 0.6672572 0.8474971 0.7426121 0.6722777 0.72678804 0.88937277 0.79680526
0.9493192 1.2137313 0.5830506 0.7105261 0.88819015 0.8490614 0.6730818 0.8694114
00000000: 94fa a33f 5ed1 2a3f 92f5 583f d41b 3e3f
00000010: 641a 2c3f c80e 3a3f efad 633f 6efb 4b3f
00000020: 9506 733f 8c5b 9b3f ce42 153f 0ae5 353f
00000030: 6e60 633f 175c 593f 174f 2c3f bf91 5e3f

fc1.weight f4 [256, 256]
0.079641946 0.016498622 -0.047304265 -0.0036475249 0.015239192 -0.032532636 0.0520562 -0.002940574
-0.09647165 0.060364183 -0.02768128 0.07543365 0.026112981 -0.09743325 -0.045573022 -0.016234975
0.022466425 -0.05203277 0.05189016 0.037336256 0.14890836 -0.18123221 -0.037317604 0.02744878
0.0040018586 -0.032978855 -0.13423888 -0.04147752 -0.014931038 0.06231725 0.1030454 -0.000178779
-0.065783456 0.026860638 0.13704191 -0.099971056 0.066778846 -0.055138577 -0.022960847 0.010345031
0.04213957 -0.08353838 0.120087445 0.050034042 0.14578384 -0.009237264 0.07235331 0.117286585
0.09251563 -0.036437932 0.055203266 0.048378784 0.10099102 0.16448945 -0.1961721 -0.02219114
-0.09351482 -0.07044943 -0.06641604 0.10159782 0.0664899 -0.06061005 0.10626962 0.10184369
0.04891685 -0.030289186 -0.067585714 -0.088046156 -0.030203925 -0.07060095 -0.00828384 -0.006841479
0.08225984 -0.00074120454 0.08789622 -0.022948727 -0.15735514 -0.005145638 -0.035027944 -0.11203905
-0.069390856 -0.025990434 0.04321353 -0.034936666 0.07746506 -0.04118077 0.031659324 0.018051423
0.032533295 0.032617856 0.031896893 0.055747215 0.16511306 0.09278669 0.09271222 -0.0005641143
-0.009575741 -0.059659623 0.101013064 -0.024949122 0.16163869 -0.037417963 0.0840809 0.021183103
0.034404185 -0.057854306 0.0061490936 -0.033394925 0.092980266 0.0557832 -0.048274636 -0.07259825
0.08095355 -0.016845802 -0.02585079 -0.02066042 -0.096390516 0.0029291888 0.03808739 -0.004317254
0.00972564 -0.11788121 0.07841474 -0.14305475 -0.014962277 -0.05754623 -0.030893197 0.13840291
0.0396098 -0.023992067 0.023095822 -0.039344948 -0.033141546 -0.04658962 0.07215963 -0.17012769
0.087659694 0.014737695 0.11924002 -0.15699308 0.13584104 -0.08239355 0.08074534 -0.01489099
-0.023795005 -0.04446528 -0.020238033 -0.0026336035 0.0751108 -0.092644334 0.08598326 -0.017584654
0.17486984 0.08997925 0.08612077 0.097244896 -0.16350384 0.15679067 0.014760392 -0.03593844
-0.025882475 0.02999629 -0.038702004 -0.022609055 0.07080727 -0.041160908 0.011615865 -0.05461195
0.13711706 0.030881768 -0.03502964 -0.10165262 -0.0555362 0.021401428 0.009321431 -0.10234245
0.022546867 -0.05628794 -0.062522136 0.06595542 0.11699375 -0.00075254665 -0.09806085 -0.016468571
-0.057121735 0.013076765 0.06897355 -0.057166733 0.01706007 0.040492132 -0.0039867633 0.14938156
-0.063375995 -0.10912671 0.052250884 -0.006451241 0.1102081 0.01958824 -0.098533235 -0.025827898
-0.052656915 0.01850771 -0.022400048 0.01948806 -0.069703735 0.10963363 0.08477939 -0.07692174
-0.045048866 -0.0077313245 -0.08570708 0.07696185 0.033177286 0.0116393315 -0.032811724 -0.009699143
-0.110183425 -0.040364753 0.12455684 -0.07972599 0.037474513 -0.0831546 -0.041924935 -0.1587487
0.16125141 0.036240224 0.037298635 0.096413456 0.096084595 0.042268604 0.09481193 0.059176806
0.055391025 0.08518104 0.0023001174 -0.008684335 -0.015100199 0.18848442 0.038369205 0.10851526
0.041381806 -0.008792102 -0.048298914 -0.0035200794 0.02558221 0.039268546 -0.019973326 -0.026749324
-0.054864954 -0.099556774 -0.0850977 -0.057290427 -0.11914296 0.029736083 -0.115854256 -0.10801776
00000000: 511b a33d 1e28 873c 1ec2 41bd 500b 6fbb
00000010: cead 793c f140 05bd e238 553d a5b6 40bb
00000020: ee92 c5bd 6f40 773d dac3 e2bc f57c 9a3d
00000030: e4ea d53c 158b c7bd c7aa 3abd 36ff 84bc
00000040: 820b b83c 5020 55bd c78a 543d e7ed 183d
00000050: 6f7b 183e f094 39be 58da 18bd 44dc e03c
00000060: 0622 833b d614 07bd eb75 09be 55e4 29bd
00000070: 50a1 74bc 5f40 7f3d 7709 d33d 9f76 3bb9
00000080: 7ab9 86bd d70a dc3c b754 0c3e a0bd ccbd
00000090: 59c3 883d fdd8 61bd 6318 bcbc 347e 293c
000000a0: 8b9a 2c3d 2c16 abbd 68f0 f53d 7ff0 4c3d
000000b0: 5c48 153e e557 17bc f92d 943d f333 f03d
000000c0: d678 bd3d f13f 15bd d21c 623d d528 463d
000000d0: 61d4 ce3d ec6f 283e 57e1 48be 32ca b5bc
000000e0: b384 bfbd ca47 90bd 2205 88bd 8512 d03d
000000f0: db2b 883d 3e42 78bd e3a3 d93d 6d93 d03d
00000100: 095d 483d 0721 f8bc 616a 8abd 8b51 b4bd
00000110: 396e f7bc 3b97 90bd f1b8 07bc 7c2e e0bb
00000120: d977 a83d 654d 42ba ef02 b43d f8fe bbbc
00000130: b521 21be bd9c a8bb 7679 0fbd bb74 e5bd
00000140: cb1c 8ebd e4e9 d4bc ac00 313d c019 0fbd
00000150: 00a6 9e3d 2bad 28bd 35ad 013d 94e0 933c
00000160: a241 053d 4d9a 053d 51a6 023d 3157 643d
00000170: 6613 293e f306 be3d e8df bd3d 12e1 13ba
00000180: 92e3 1cbc a65d 74bd f0df ce3d 1a62 ccbc
00000190: 9d84 253e 9443 19bd 9b32 ac3d 3088 ad3c
000001a0: 67eb 0c3d a3f8 6cbd 567e c93b 1ec9 08bd
000001b0: 706c be3d ed7c 643d a0bb 45bd 64ae 94bd
000001c0: faca a53d 3500 8abc 09c5 d3bc 0b40 a9bc
000001d0: 6468 c5bd a2f7 3f3b 8601 1c3d c077 8dbb
000001e0: 4a58 1f3c b46b f1bd e897 a03d f27c 12be
000001f0: 5724 75bc 98b5 6bbd bb13 fdbc 7eb9 0d3e
00000200: e33d 223d 038b c4bc 7333 bd3c 2b28 21bd
00000210: 6ebf 07bd c2d4 3ebd 6ec8 933d f435 2ebe
00000220: ed86 b33d 6076 713c 1d34 f43d cbc2 20be
00000230: ea19 0b3e f3bd a8bd d05d a53d 57f9 73bc
00000240: beed c2bc 3a21 36bd 3bca a5bc 8998 2cbb
00000250: b1d3 993d 50bc bdbd fe17 b03d b10d 90bc
00000260: 1411 333e 0b47 b83d 1660 b03d 5528 c73d
00000270: 8d6d 27be bc8d 203e 92d5 713c 3034 13bd
00000280: 7c07 d4bc c8ba f53c fe85 1ebd a036 b9bc
00000290: 6703 913d 5798 28bd 7850 3e3c c8b0 5fbd
000002a0: 6a68 0c3e c3fb fc3c 3d7b 0fbd 402f d0bd
000002b0: ed79 63bd 0c52 af3c eab8 183c eb98 d1bd
000002c0: 35b4 b83c 2f8e 66bd 9b0b 80bd a313 873d
000002d0: 6b9a ef3d 8d46 45ba 20d4 c8bd 19e9 86bc
000002e0: 7bf8 69bd ee3f 563c 0142 8d3d aa27 6abd
000002f0: 8fc1 8b3c 14db 253d 65a3 82bb 7bf7 183e
00000300: 46cb 81bd d37d dfbd 0605 563d ef64 d3bb
00000310: c9b4 e13d 8477 a03c cbcb c9bd 0795 d3bc
00000320: c7ae 57bd 7b9d 973c 4e80 b7bc 6da5 9f3c
00000330: d5c0 8ebd 9987 e03d d1a0 ad3d 2589 9dbd
00000340: 2985 38bd 0d57 fdbb 3287 afbd 2d9e 9d3d
00000350: e8e4 073d e5b2 3e3c 9665 06bd 27e9 1ebc
00000360: d9a7 e1bd 8355 25bd a817 ff3d 6147 a3bd
00000370: e07e 193d f54c aabd 7bb9 2bbd 058f 22be
00000380: 171f 253e a170 143d 74c6 183d 6b74 c53d
00000390: 00c8 c43d d821 2d3d c22c c23d 6163 723d
000003a0: b3e1 623d 6673 ae3d 91bd 163b be48 0ebc
000003b0: d366 77bc 0f02 413e 0729 1d3d 403d de3d
000003c0: f87f 293d c00c 10bc 15d5 45bd 22b1 66bb
000003d0: c891 d13c 0ed8 203d 1a9f a3bc 6621 dbbc
000003e0: 13ba 60bd 6ce4 cbbd b447 aebd 5ea9 6abd
000003f0: 3901 f4bd 1699 f33c ff44 edbd 6a38 ddbd

fc1.bias f4 [256]
-0.052916124 0.026887782 0.035065815 -0.05120569 0.0077499445 -0.044260878 -0.011113539 0.02041164
-0.0045963344 -0.055993505 0.041725118 -0.055722978 -0.040520255 -0.049248915 -0.015249013 -0.031476974
0.0056469543 0.047979236 -0.031402066 0.04924567 -0.05998942 0.040955883 -0.05789411 0.005355304
-0.023011573 0.036752842 -0.04265583 -0.029383989 0.0013479434 -0.005367538 -0.002798172 0.026149165
-0.035301827 -0.020227583 0.0520039 -0.043970734 0.051289316 -0.018985271 0.0586094 -0.031823397
-0.03660519 -0.025967004 0.01495417 0.004953 -0.05170337 -0.05911335 0.03542014 -0.05407973
-0.0277709 -0.004387272 0.0325365 0.008864161 0.031291056 -0.03296012 0.00095594366 -0.011862914
0.04709972 -0.009319241 0.056526404 0.041961625 -0.03470099 -0.029083459 0.055792756 0.0016066639
-0.051108602 0.0028392593 -0.04540608 0.024886066 -0.054183625 -0.0220931 0.012697271 0.060108118
-0.008559765 -0.04689385 0.017709777 -0.032132655 -0.028801275 -0.060130786 -0.036898486 0.014060622
0.06048155 0.049813747 -0.050077643 -0.046192035 -0.0561258 0.0068069445 0.04063665 -0.042009555
0.031342648 -0.01655973 -0.026771838 0.034329474 0.006128925 0.046007067 -0.018412357 0.038668636
-0.036997393 -0.033335038 0.005954079 0.03329228 0.060599007 0.05610351 -0.048800573 -0.042173125
-0.029862313 -0.029017672 -0.0627368 -0.0033386417 -0.03784203 -0.018484598 -0.04093605 -0.03451714
0.034810014 -0.018949585 0.02975312 0.018099148 0.011698976 0.05014295 -0.008016937 0.011075448
0.0428988 0.0536793 -0.039266523 -0.0018489273 -0.047338728 0.0125650605 -0.047772888 -0.0147830425
0.0141970385 -0.02237285 -0.029592741 0.0017754722 -0.036917754 -0.048134472 0.03252381 0.003945401
-0.04928917 -0.00981193 0.058337018 0.04662158 0.056681544 0.0012894981 0.06177198 -0.058373146
0.033486586 -0.052260637 0.05690646 -0.025778156 -0.02832321 -0.03629029 -0.030553611 -0.003801629
0.036223512 -0.014797954 0.02538393 0.04918105 0.0053827325 -0.027094977 -0.025311133 -0.03823782
0.011186444 -0.017395774 0.05382727 0.010171005 -0.04719533 -0.010438939 -0.041263297 0.029524468
0.02811774 -0.0030615292 0.018679295 0.029498335 -0.045749687 -0.029276656 0.053243876 0.018957164
-0.017772926 0.019864133 -0.05319915 0.026966225 0.008444165 0.018480476 -0.003055269 0.017048892
0.0073694917 0.021158442 -0.009918343 -0.056580618 0.0053519043 -0.0066893883 0.016586391 -0.056139916
-0.04778527 0.05895601 -0.05230881 0.050394356 0.009053059 0.016322525 -0.028293865 0.01734767
0.04658135 0.012312967 0.04706475 -0.004724306 0.057924815 -0.036807366 0.04018713 -0.041143607
0.0055560507 0.014479367 -0.04907515 -0.030972831 -0.0089046415 -0.05461013 -0.028191548 -0.00071482453
-0.023883874 -0.0007639012 0.03406352 0.05848869 0.046714548 0.048463225 -0.04207043 0.0025001974
-0.051657338 0.055718467 0.036563687 -0.019119218 0.05591895 0.014109171 0.003234729 0.059636164
-0.013979792 0.056064826 0.05573361 0.025138533 0.050312895 0.0044489447 -0.022086242 0.05481118
0.01583829 0.037507173 0.028661294 0.023074571 -0.060577437 0.009406096 -0.0027368052 0.044135477
-0.062386516 -0.034495912 0.03236498 0.007851253 0.0022254686 0.0021717823 -0.057359543 -0.011141323
00000000: 94be 58bd c443 dc3c 2ca1 0f3d 0fbd 51bd
00000010: 3ff3 fd3b e54a 35bd 9015 36bc 5036 a73c
00000020: d99c 96bb 7259 65bd f5e7 2a3d c73d 64bd
00000030: 91f8 25bd 3bb9 49bd ffd6 79bc 00ee 00bd
00000040: 160a b93b e085 443d 749f 00bd d4b5 493d
00000050: 77b7 75bd 5bc1 273d 6022 6dbd 8c7b af3b
00000060: c482 bcbc 268a 163d e1b7 2ebd b1b6 f0bc
00000070: 7aad b03a 2ce2 afbb 8961 37bb c636 d63c
00000080: a698 10bd 51b4 a5bc 0b02 553d a81a 34bd
00000090: bf14 523d 0087 9bbc 6910 703d 4059 02bd
000000a0: 53ef 15bd c1b8 d4bc 5602 753c c74c a23b
000000b0: eac6 53bd d720 72bd b514 113d b582 5dbd
000000c0: cc7f e3bc 1bc3 8fbb fe44 053d fc3a 113c
000000d0: 0d2b 003d 3101 07bd 4b98 7a3a ab5c 42bc
000000e0: a3eb 403d bbaf 18bc 3b88 673d f4df 2b3d
000000f0: a022 0ebd 6f40 eebc f286 643d b296 d23a
00000100: 4157 51bd de12 3a3b bafb 39bd dddd cb3c
00000110: a6ef 5dbd 97fc b4bc 3708 503c ee33 763d
00000120: 423e 0cbc c413 40bd 1814 913c 889d 03bd
00000130: a7f0 ebbc b34b 76bd de22 17bd 865e 663c
00000140: 80bb 773d 8009 4c3d 371e 4dbd dc33 3dbd
00000150: 2be4 65bd ca0c df3b 9e72 263d 3612 2cbd
00000160: 2661 003d 45a8 87bc 9d50 dbbc 109d 0c3d
00000170: 26d5 c83b e871 3c3d 83d5 96bc 0163 1e3d
00000180: 948a 17bd 528a 08bd 6f1a c33b 7c5d 083d
00000190: aa36 783d cbcc 653d 1ce3 47bd babd 2cbd
000001a0: cfa1 f4bc 78b6 edbc 277c 80bd 1dcd 5abb
000001b0: 3f00 1bbd 036d 97bc 8fac 27bd d861 0dbd
000001c0: f294 0e3d 293c 9bbc d1bc f33c aa44 943c
000001d0: 10ad 3f3c b262 4d3d 7959 03bc cc75 353c
000001e0: a7b6 2f3d d3de 5b3d efd5 20bd b557 f2ba
000001f0: 41e6 41bd afdd 4d3c 81ad 43bd 9334 72bc
00000200: b29a 683c 4447 b7bc 7a6c f2bc f6b6 e83a
00000210: 1237 17bd a728 45bd b037 053d 6c48 813b
00000220: 71e3 49bd 38c2 20bc ccf2 6e3d 45f6 3e3d
00000230: e82a 683d 6004 a93a 9e04 7d3d ae18 6fbd
00000240: 3b29 093d 400f 56bd c016 693d b62c d3bc
00000250: 1406 e8bc 21a5 14bd 914b fabc c024 79bb
00000260: 1b5f 143d 1e73 72bc f6f1 cf3c 1272 493d
00000270: a261 b03b 49f6 ddbc 4b59 cfbc 439f 1cbd
00000280: 5947 373c 9581 8ebc fc79 5c3d 49a4 263c
00000290: e44f 41bd 1508 2bbc b403 29bd 4cdd f13c
000002a0: 2d57 e63c f0a3 48bb 5205 993c 7ea6 f13c
000002b0: 0664 3bbd 99d5 efbc 4016 5a3d 0e4c 9b3c
000002c0: 8798 91bc 1bba a23c 5ae7 59bd 46e8 dc3c
000002d0: 6559 0a3c 5e64 973c e83a 48bb 1eaa 8b3c
000002e0: c77b f13b 7854 ad3c 8c80 22bc 14c1 67bd
000002f0: 075f af3b a832 dbbb 2fe0 873c f8f2 65bd
00000300: 7dba 43bd db7b 713d c341 56bd 506a 4e3d
00000310: 4853 143c d1b6 853c 89c8 e7bc b31c 8e3c
00000320: 16cc 3e3d 54bc 493c f8c6 403d 5ace 9abb
00000330: 9242 6d3d 52c3 16bd 439b 243d 3386 28bd
00000340: 880f b63b de3a 6d3c 0603 49bd bcba fdbc
00000350: c6e4 11bc dfae 5fbd f6f1 e6bc 1063 3bba
00000360: 1da8 c3bc 8b40 48ba 3186 0b3d d691 6f3d
00000370: c157 3f3d 6081 463d 0b52 2cbd 5ada 233b
00000380: a596 53bd 0c39 643d cec3 153d e89f 9cbc
00000390: 450b 653d 272a 673c bffd 533b 0d45 743d
000003a0: 7f0b 65bc 3ba4 653d ed48 643d 53ef cd3c
000003b0: e514 4e3d 74c8 913b 35ee b4bc b081 603d
000003c0: 4dbf 813c 1fa1 193d 17cb ea3c e206 bd3c
000003d0: 0c20 78bd 071c 1a3c f95b 33bb 67c7 343d
000003e0: 0189 7fbd 964b 0dbd 2491 043d 8ba2 003c
000003f0: 2bd9 113b 7654 0e3b d7f1 6abd 188a 36bc

fc_bn1.weight f4 [256]
0.9532396 1.0465423 1.0167899 0.8920396 1.020951 1.115434 0.99606967 1.1003939
0.9850954 1.1146754 0.98960304 1.0460515 0.95738965 1.0087656 1.0445904 0.92284393
1.0926907 0.9897582 1.0080659 1.1186448 1.0295862 1.1025974 1.0781628 1.0531775
1.2334722 1.1830955 0.92158026 1.0203707 0.94483745 1.0080874 1.0288057 0.90513
1.0012125 1.1154263 1.0402808 0.99977994 0.98727334 1.0979239 0.9094384 1.0635275
1.0903425 0.9900865 1.0279653 0.93837154 0.9144206 0.9995359 1.0046889 0.9988758
1.0462098 1.2040597 0.913596 1.0502489 1.012165 0.9795932 1.0932509 1.1325881
1.1540139 1.0552752 0.91696036 1.1639996 1.0599729 1.0492613 1.0839518 0.9924962
1.1564277 1.0243084 1.1473317 1.0427734 0.88668156 1.0334498 1.0713384 1.0638286
1.0980846 1.0584391 1.1289191 0.9608625 1.0405465 1.1074587 1.0511519 1.0695734
1.0007426 0.977454 1.0388191 1.2412634 1.080803 0.9188861 1.0446059 1.1038935
1.0535342 1.0715512 1.1730313 1.1117048 1.1484525 1.0232507 1.0899343 0.9763059
1.073207 1.0079883 1.0203087 0.9979985 0.92725575 1.1418822 0.9340238 0.955884
1.061926 1.0244781 0.89114904 0.95168775 0.9696258 1.1170468 1.1498923 1.1121432
0.95132196 0.93610924 0.9661183 0.92499375 1.1250526 1.1966857 1.1735611 1.0582463
0.9955214 0.9913368 1.0896517 1.0516753 1.0355235 1.0158135 1.0672573 1.1270244
1.0484128 1.1134126 1.027841 1.0878441 1.0592248 1.0386477 1.0057817 1.0919719
1.1951363 1.162038 1.1047523 1.0739496 1.1265317 1.0901732 1.0160675 0.9620824
1.1078742 0.9197701 1.1787306 0.9999167 1.109522 1.0652727 1.0514153 0.9827077
1.0472342 1.0036037 0.95621175 0.97757846 1.1689566 1.0688012 1.0362878 1.0431931
1.0981644 0.96557546 1.0727007 1.1350955 1.0514698 1.0732343 1.0509225 1.0487736
0.9718736 1.0039918 1.1413848 1.1476587 1.1421708 0.98758465 0.93370974 1.0522912
1.156157 1.0005783 1.0344117 0.9761498 0.98394114 1.1159228 1.0841004 1.076458
0.9448497 0.9712243 1.181224 1.0026857 1.1693007 0.95611805 1.0624436 1.1161075
1.1208524 1.0847161 0.9739138 0.8880412 1.0420301 0.9532466 0.98179287 0.9770937
1.0046104 1.0797758 1.116324 1.1409267 1.0977525 1.0356232 1.0793706 0.8874696
0.99481773 1.060623 0.9496564 1.0964113 0.9828664 0.96241015 0.9760402 0.93667585
1.0633215 1.0533745 1.1002259 1.1867858 1.1294608 0.8375729 0.98321176 1.0302138
0.99830157 1.0886226 0.95907605 1.0328742 1.010336 1.0262675 1.0155222 0.92703015
1.1065079 1.0782417 1.0786979 1.0970848 1.0168147 1.0391687 1.0047716 1.0476298
0.98663455 0.97820127 1.0897512 1.1330858 1.0588237 1.0925406 1.0314621 0.92161554
1.1424849 0.9600933 1.1399444 1.0042503 0.9601142 1.0504733 1.1463448 1.0798398
00000000: 8307 743f 19f5 853f 2c26 823f b55c 643f
00000010: 86ae 823f 8bc6 8e3f 6cfe 7e3f b5d9 8c3f
00000020: 362f 7c3f afad 8e3f a056 7d3f 04e5 853f
00000030: 7d17 753f 3b1f 813f 23b5 853f 803f 6c3f
00000040: 4add 8b3f cb60 7d3f 4e08 813f c12f 8f3f
00000050: 7bc9 833f e921 8d3f 3d01 8a3f 85ce 863f
00000060: 6be2 9d3f ac6f 973f afec 6b3f 829b 823f
00000070: dee0 713f 0209 813f e8af 833f 9ab6 673f
00000080: bb27 803f 4ac6 8e3f ec27 853f 94f1 7f3f
00000090: f2bd 7c3f c588 8c3f f4d0 683f ab21 883f
000000a0: 5890 8b3f 4f76 7d3f 5e94 833f 1e39 703f
000000b0: 7817 6a3f 96e1 7f3f a599 803f 53b6 7f3f
000000c0: 34ea 853f a11e 9a3f 6de1 693f 8e6e 863f
000000d0: 9f8e 813f 9fc6 7a3f a5ef 8b3f a6f8 903f
000000e0: bab6 933f 4213 873f eabd 6a3f f0fd 943f
000000f0: 31ad 873f 324e 863f efbe 8a3f 3b14 7e3f
00000100: d305 943f 8a1c 833f c4db 923f 9979 853f
00000110: 90fd 623f 1548 843f 9e21 893f 892b 883f
00000120: 098e 8c3f ef7a 873f 6c80 903f 16fb 753f
00000130: a130 853f 35c1 8d3f 258c 863f c8e7 883f
00000140: 5518 803f 6d3a 7a3f 06f8 843f b8e1 9e3f
00000150: c157 8a3f 1f3c 6b3f a5b5 853f 624c 8d3f
00000160: 35da 863f 9728 893f e425 963f 584c 8e3f
00000170: 7e00 933f e1f9 823f f882 8b3f 2fef 793f
00000180: d95e 893f c305 813f 7a99 823f d47c 7f3f
00000190: a260 6d3f 3229 923f 2f1c 6f3f d0b4 743f
000001a0: 31ed 873f 1922 833f 5822 643f cfa1 733f
000001b0: 6539 783f 64fb 8e3f ac2f 933f b55a 8e3f
000001c0: d689 733f dba4 6f3f 8753 773f 64cc 6c3f
000001d0: b901 903f ff2c 993f 4037 963f 9d74 873f
000001e0: 7eda 7e3f 40c8 7d3f b579 8b3f 4c9d 863f
000001f0: 098c 843f 2d06 823f e39b 883f 5642 903f
00000200: 6432 863f 4e84 8e3f 4b90 833f 7a3e 8b3f
00000210: ae94 873f 68f2 843f 74bd 803f bcc5 8b3f
00000220: 3afa 983f a9bd 943f 8668 8d3f 2e77 893f
00000230: 3132 903f cc8a 8b3f 800e 823f 084b 763f
00000240: d2ce 8d3f 0e76 6b3f a5e0 963f 8afa 7f3f
00000250: d104 8e3f db5a 883f c794 863f bb92 7b3f
00000260: c50b 863f 1676 803f 4bca 743f 9542 7a3f
00000270: 5fa0 953f 7ace 883f 14a5 843f 5a87 853f
00000280: a790 8c3f f42f 773f 424e 893f cf4a 913f
00000290: 9096 863f be5f 893f a184 863f 373e 863f
000002a0: b5cc 783f ce82 803f e618 923f 7be6 923f
000002b0: a732 923f 59d2 7c3f 9a07 6f3f 7ab1 863f
000002c0: f4fc 933f f312 803f 9a67 843f f4e4 793f
000002d0: 91e3 7b3f 8fd6 8e3f cdc3 8a3f 60c9 893f
000002e0: ace1 713f 28a2 783f 5932 973f 0158 803f
000002f0: a5ab 953f 27c4 743f 27fe 873f 9cdc 8e3f
00000300: 1778 8f3f fad7 8a3f 6a52 793f ab56 633f
00000310: 3e61 853f f807 743f c756 7b3f d022 7a3f
00000320: 1397 803f 1836 8a3f b4e3 8e3f e309 923f
00000330: 2783 8c3f 4d8f 843f d128 8a3f 3531 633f
00000340: 60ac 7e3f 7fc2 873f af1c 733f 3557 8c3f
00000350: 229d 7b3f 8360 763f c5dd 793f fdc9 6f3f
00000360: eb1a 883f fad4 863f 34d4 8c3f 99e8 973f
00000370: 2c92 903f 2d6b 563f c4b3 7b3f 0cde 833f
00000380: b190 7f3f fc57 8b3f 0286 753f 3935 843f
00000390: b152 813f bc5c 833f a2fc 813f d951 6d3f
000003a0: 0da2 8d3f d303 8a3f c612 8a3f 466d 8c3f
000003b0: fc26 823f 7b03 853f 5b9c 803f bc18 863f
000003c0: 1594 7c3f 666b 7a3f f87c 8b3f f508 913f
000003d0: 8987 873f 5fd8 8b3f f306 843f ffee 6b3f
000003e0: f23c 923f adc8 753f b3e9 913f 468b 803f
000003f0: 0bca 753f e975 863f 6dbb 923f 3138 8a3f
